policy.pt (torch, 536703 bytes, 8 tensors)

input.weight f4 [256, 4]
0	0xbed1d9ce	-0.40986484
1	0xbec85cb2	-0.3913322
2	0x3f018f46	0.5060924
3	0x3ec17b7d	0.37789527
4	0xbe75ed5e	-0.2401633
5	0x3ee72d48	0.45151734
6	0x3f6e308f	0.93042845
7	0x3d71b06d	0.059006143
8	0xbde07741	-0.10960246
9	0x3da33023	0.07968166
10	0x3f1654d4	0.5872319
11	0x3d27ae50	0.04093772
12	0x3f0a835a	0.54106677
13	0xbe2d963c	-0.16951841
14	0x3db2c69a	0.087292865
15	0xbed2edd9	-0.41197088
16	0xbef2e222	-0.4743815
17	0x3e6705b5	0.22560771
18	0x3f54f7c2	0.8319055
19	0x3d7e646a	0.06210748
20	0xbe627feb	-0.2211911
21	0x3f04ffdd	0.51952916
22	0x3f690be0	0.91033745
23	0x3efb6172	0.49097782
24	0x3df99ead	0.12188468
25	0xbed79e91	-0.42113164
26	0xbea281c5	-0.3173963
27	0xbdbd1d26	-0.09234075
28	0xbe1429ef	-0.14469121
29	0xbd10cc33	-0.03535099
30	0x3eeb6a15	0.45979372
31	0x3d37306e	0.04472392
32	0x3f25f89c	0.6483247
33	0xbc9acd71	-0.01889679
34	0xbf53fdf3	-0.8280937
35	0xbe2ec555	-0.17067464
36	0xbeacb951	-0.33735135
37	0x3ec9cbcf	0.39413306
38	0x3e8f435e	0.27981085
39	0xbef65396	-0.48110646
40	0xbdebf3b8	-0.11521095
41	0xbeda9885	-0.42694488
42	0xbf293362	-0.6609403
43	0xbec8c2b6	-0.39211053
44	0x3ef8bef9	0.485832
45	0x3d7c4dec	0.06159775
46	0xbf0feb67	-0.5621857
47	0xbe8b9eee	-0.2726969
48	0xbecc9e62	-0.39964586
49	0x3df99b23	0.12187793
50	0x3f611402	0.87921154
51	0x3eb6f621	0.35734656
52	0xbec73ffd	-0.38916007
53	0x3ed5a6f9	0.41728953
54	0x3f0582c0	0.52152634
55	0xbe8e1de0	-0.27757168
56	0xbebf5cbd	-0.3737544
57	0x3f09d30f	0.53837675
58	0x3e76afa7	0.24090444
59	0x3eab9bcd	0.33517304
60	0xbe9a6771	-0.30157045
61	0x3e665539	0.22493447
62	0xbf4c7263	-0.7986204
63	0xbe906f9b	-0.28210148
64	0xbe657aef	-0.22410177
65	0x3ed3a567	0.4133713
66	0x3ea84c4b	0.32870707
67	0x3c9a535e	0.01883858
68	0x3e40d6f3	0.18831997
69	0xbf0c6d48	-0.5485425
70	0xbe06d9fa	-0.13169089
71	0xbd9e53c7	-0.07730823
72	0xbc8ce391	-0.017198356
73	0xbec84f22	-0.39122874
74	0x3eed9e7a	0.4640997
75	0x3ed2e212	0.41188103
76	0x3ef462fe	0.47731775
77	0x3da5958b	0.08085164
78	0xbf493d0d	-0.7860878
79	0xbe9da877	-0.3079259
80	0x3eee66a6	0.4656269
81	0xbdc52de5	-0.09627894
82	0xbf4c66d3	-0.798444
83	0x3e751ea3	0.23937468
84	0xbd1786bf	-0.03699374
85	0x3dc4ccff	0.096094124
86	0x3ec15090	0.37756777
87	0x3eddd589	0.43326977
88	0x3e8b1472	0.27164036
89	0x3ed797ec	0.42108095
90	0xbce971b5	-0.028496603
91	0xbef03643	-0.46916398
92	0x3e938e4e	0.28819507
93	0x3ea4b533	0.32169494
94	0x3d65f337	0.05614015
95	0xbdc43d80	-0.09582043
96	0xbcf6deb0	-0.030135483
97	0xbf1744dc	-0.59089446
98	0xbf623de4	-0.8837569
99	0xbe9c88fd	-0.30573264
100	0x3e2b8ea4	0.16753632
101	0xbe99ff1e	-0.3007745
102	0xbc352c08	-0.011057861
103	0x3eb712ad	0.35756436
104	0xbc137ee6	-0.009002423
105	0x3e8f68cf	0.2800965
106	0x3f1c24bb	0.60993546
107	0x3ef7abd3	0.4837328
108	0x3b0cfaef	0.0021511873
109	0x3d40c84b	0.047066014
110	0x3eecdfc0	0.46264458
111	0xbee94e7a	-0.45567685
112	0xbe13d4b0	-0.14436603
113	0xbe6c5164	-0.23077923
114	0xbeba5ee6	-0.36400527
115	0x3ee25f76	0.44213456
116	0xbf13419f	-0.57522005
117	0xbe14aa74	-0.14518148
118	0x3f4c31aa	0.7976328
119	0x3db62384	0.08893493
120	0x3f029f89	0.5102468
121	0xbe370ad0	-0.17875218
122	0xbefcadd6	-0.49351376
123	0x3e188856	0.14895758
124	0x3d27730e	0.04088121
125	0xbde93c00	-0.11388397
126	0x3ca84508	0.02054073
127	0x3e8363b2	0.25662
128	0x3ef47815	0.47747865
129	0x3eb7b060	0.3587675
130	0xbeedce43	-0.46446428
131	0xbe03af20	-0.12859774
132	0xbed7b561	-0.4213057
133	0xbe7e592a	-0.24838701
134	0x3e43cb8b	0.19120614
135	0x3e380db7	0.17973982
136	0x3e82b3d3	0.2552782
137	0xbe027f22	-0.1274381
138	0xbf5c259b	-0.8599488
139	0xbef1eaaf	-0.47249362
140	0x3f17201c	0.5903337
141	0x3e0148d6	0.12625441
142	0xbf552bb2	-0.832698
143	0x3ecf0cc9	0.40439442
144	0xbecc2368	-0.39870763
145	0xbee4959f	-0.44645402
146	0x3f0bcfb3	0.546138
147	0x3dd25cbd	0.10271595
148	0xbcbb0aba	-0.022832263
149	0xbeb52939	-0.35383013
150	0xbeac7ba1	-0.3368807
151	0xbe7bd6a9	-0.24593605
152	0x3ef0c0bd	0.47022048
153	0xbde278c8	-0.110581934
154	0xbd33111d	-0.043717492
155	0xbe4041d7	-0.18775116
156	0x3f063191	0.5241938
157	0xbecd4758	-0.40093493
158	0xbf0aaeb7	-0.54172844
159	0x3e94d0fe	0.29065698
160	0xbe4d9890	-0.20077729
161	0xbeff40d4	-0.49854147
162	0x3e3400df	0.17578457
163	0xbed207b1	-0.41021493
164	0xbefeff8c	-0.49804342
165	0x3ed705ad	0.41996518
166	0x3f6a9897	0.91639084
167	0x3ec1290f	0.37726638
168	0x3e3dcd8e	0.18535444
169	0xbea4cb2a	-0.32186252
170	0xbe70538a	-0.23469368
171	0x3bea434e	0.0071491366
172	0xbe9bc54f	-0.30423972
173	0x3e6136cf	0.21993564
174	0x3f11e919	0.56996304
175	0x3e835279	0.2564886
176	0xbd574d3f	-0.052563902
177	0xbea46d89	-0.3211482
178	0xbf29b537	-0.66292137
179	0x3e805852	0.25067383
180	0xbe9d1261	-0.30678084
181	0x3ea85335	0.32875982
182	0xbf0eff6a	-0.5585848
183	0xbe335303	-0.17512135
184	0x3e906aaf	0.28206393
185	0xbc8ab21a	-0.016930629
186	0xbf6b7283	-0.91971606
187	0xbe4f1b1f	-0.2022519
188	0x3db25d7e	0.087092385
189	0xbea56d09	-0.3230975
190	0xbf3f0be9	-0.7462755
191	0xbdc17b74	-0.09447375
192	0x3d89c681	0.06727315
193	0xbdbd074b	-0.09229907
194	0x3f0f545a	0.55988085
195	0x3f049cc2	0.51801693
196	0xbe9545de	-0.29154867
197	0x3e8935a0	0.26798725
198	0x3e937113	0.28797206
199	0xbe3f319b	-0.18671267
200	0x3ebd49e6	0.36970443
201	0xbc958faf	-0.01825699
202	0xbdce723c	-0.10080382
203	0x3ef288dd	0.47370043
204	0x3c9911a1	0.018685164
205	0x3e8dd7d4	0.27703726
206	0xbf28d69b	-0.6595246
207	0x3ea35eac	0.31908166
208	0x3e5f7ba4	0.21824509
209	0x3ecb9a1f	0.39766023
210	0x3f3853b8	0.72002745
211	0x3ee9b63a	0.4564684
212	0xbefb103d	-0.49035826
213	0x3f0484ea	0.5176531
214	0x3f3b16d7	0.73081726
215	0xbeb86ce7	-0.36020586
216	0xbdea8f50	-0.11453116
217	0xbea95c47	-0.33078215
218	0xbf1da36e	-0.615775
219	0x3df45fd2	0.11932339
220	0xbd897248	-0.067112505
221	0x3e9c0e3f	0.3047962
222	0x3f65dbfe	0.89788806
223	0x3df19cd2	0.11797489
224	0xbf0e6b50	-0.55632496
225	0x3ed065f7	0.40702793
226	0x3e1adf82	0.15124324
227	0x3eeaa6ae	0.45830292
228	0xbec9b7c6	-0.3939802
229	0x3e4d92a3	0.20075469
230	0x3f29b90d	0.6629799
231	0xbe4f741d	-0.20259137
232	0xbe77fc48	-0.24217331
233	0xbe957996	-0.29194325
234	0xbeedb3e1	-0.464263
235	0xbdac7ea3	-0.084225915
236	0x3ee97004	0.45593274
237	0x3e8b08c0	0.27155113
238	0xbf511acd	-0.8168152
239	0x3e3db56e	0.18526241
240	0x3e938904	0.28815472
241	0xbeef33f3	-0.46719322
242	0xbe94c119	-0.29053572
243	0x3ee10352	0.43947846
244	0xbec28c31	-0.37997583
245	0x3ec7037b	0.38869843
246	0x3d06aaeb	0.032877844
247	0x3e3bfb6b	0.18357627
248	0x3ec2881c	0.37994468
249	0x3ed4035f	0.41408822
250	0xbece1bcd	-0.40255585
251	0xbe8bec36	-0.27328652
252	0x3e8853e2	0.26626498
253	0x3d3c48ec	0.04596798
254	0xbed6345d	-0.41836825
255	0xbef3ba53	-0.47603092

input.bias f4 [256]
0	0xbee675ce	-0.45011753
1	0x3e9a5cdd	0.30148974
2	0x3e8ede5c	0.27904022
3	0x3e8e34e2	0.2777472
4	0x3ed423a2	0.41433436
5	0x3ecef7a0	0.40423298
6	0xbec614ed	-0.3868784
7	0xbd576729	-0.052588616
8	0x3c7b927e	0.015354751
9	0xbe9981c4	-0.29981816
10	0xbec3f4c2	-0.38272673
11	0x3eda21a4	0.4260379
12	0xbdf3945a	-0.1189353
13	0xbdd18e5d	-0.10232232
14	0xbe1940ce	-0.14966127
15	0x3eb6a21a	0.3567055
16	0xbe89059e	-0.26762098
17	0x3e4addb7	0.1981114
18	0xbed6b73c	-0.41936672
19	0xbea043a6	-0.31301612
20	0x3df5b102	0.11996652
21	0x3eefda26	0.46846122
22	0xbecda7bc	-0.40167034
23	0xbd299fa0	-0.041411996
24	0x3e1bbdbb	0.15209095
25	0x3ea610d9	0.3243473
26	0x3e11489d	0.14187856
27	0x3d9d1e4e	0.07671796
28	0xbd8bb499	-0.06821556
29	0x3cdc6276	0.026902419
30	0xbe8074be	-0.25089067
31	0xbec4dea0	-0.384511
32	0x3ea9fd49	0.33201054
33	0xbdfc8ae4	-0.12331179
34	0xbeeffd39	-0.4687288
35	0xbea91b57	-0.3302867
36	0x3ed1ef11	0.41002706
37	0xbe00a3d1	-0.12562491
38	0x3eafa91b	0.34308705
39	0x3c25d9c5	0.010122721
40	0x3e61dcf4	0.22056943
41	0xbf014c5e	-0.5050715
42	0x3ef51a1f	0.4787149
43	0xbea0b269	-0.31386116
44	0x3eaa4c17	0.33261177
45	0xbec1704a	-0.37780982
46	0xbef08918	-0.46979594
47	0xbec61f3e	-0.3869571
48	0xbe7f65ad	-0.2494113
49	0xbed96fd3	-0.42468128
50	0x3cd0638a	0.025438089
51	0x3e7ee2d5	0.24891217
52	0x3ecdeb58	0.40218616
53	0xbe8406d1	-0.2578645
54	0x3cf20cfe	0.02954721
55	0x3e9bece0	0.3045416
56	0xbe6277a6	-0.22115955
57	0x3e86b178	0.26307273
58	0x3eabf81f	0.3358774
59	0xbe8ddfe1	-0.2770987
60	0xbe9fe89e	-0.3123216
61	0x3ec177b9	0.37786654
62	0xbe7b91ab	-0.24567287
63	0xbe328711	-0.17434336
64	0x3e32abaa	0.17448297
65	0xbe5bc523	-0.2146192
66	0x3de03e80	0.10949421
67	0xbeec516d	-0.46155873
68	0xbe87a4b7	-0.26492855
69	0xbe1e844b	-0.15480153
70	0x3ccc6590	0.024950773
71	0xbec52ea5	-0.3851215
72	0xbe8b8202	-0.27247626
73	0x3ebe916b	0.3722032
74	0x3ec1e9e3	0.37873754
75	0xbe5f6d0a	-0.21818939
76	0x3ce79836	0.028270822
77	0xbee2257e	-0.4416923
78	0xbeb03db5	-0.3442208
79	0x3d80a16f	0.06280791
80	0xbef2f986	-0.47455996
81	0x3ebf8391	0.37405065
82	0xbe172485	-0.14760025
83	0xbe655d40	-0.22398853
84	0x3e7cb6ba	0.2467908
85	0xbdb2a3a3	-0.087226175
86	0xbd47a587	-0.048741844
87	0x3e60e568	0.21962512
88	0x3e40b456	0.18818793
89	0xbed45b6f	-0.41476008
90	0x3ede47ef	0.43414256
91	0xbdb33293	-0.08749881
92	0xbec6d581	-0.38834766
93	0x3ed14edc	0.40880477
94	0x3ed904d3	0.42386493
95	0xbec26a86	-0.37971896
96	0xbca3c334	-0.019990541
97	0x3ed0ef8a	0.40807754
98	0x3e1a029b	0.15040056
99	0xbe7e196b	-0.24814384
100	0xbe6b2ac9	-0.2296554
101	0x3e5d1d47	0.215932
102	0xbe586c99	-0.21135177
103	0x3edbae6c	0.4290651
104	0x3ebefd33	0.3730255
105	0x3dbb5bf4	0.09148398
106	0xbeeeface	-0.46675724
107	0xbe6e0d9e	-0.23247382
108	0xbec5fc1f	-0.38668916
109	0xbebf64b0	-0.37381506
110	0x3ed42af5	0.41439024
111	0xbd9045ea	-0.07044585
112	0x3e5edcfd	0.21763988
113	0xbe833805	-0.25628677
114	0xbe11d6c9	-0.1424209
115	0x3e400a79	0.18753995
116	0x3db00d91	0.085963376
117	0xbce8ed0f	-0.02843335
118	0xbe897fae	-0.26855224
119	0xbea77407	-0.3270571
120	0x3e4fc6bc	0.20290655
121	0xbcaa7f28	-0.020812586
122	0x3ebff40f	0.3749089
123	0x3d9d3d53	0.07677712
124	0x3e691d27	0.22765027
125	0xbe909465	-0.28238216
126	0xbee765fb	-0.45194992
127	0x3e92ab2e	0.28646225
128	0x3e8cf8f7	0.27533695
129	0x3edac728	0.4273007
130	0xbeb26e62	-0.3484984
131	0xbcc5eb17	-0.024159951
132	0x3e857ee9	0.26073387
133	0x3df23dd0	0.11828196
134	0x3ed82b74	0.42220652
135	0x3edea916	0.43488377
136	0x3ec59dc8	0.3859694
137	0xbeacbb57	-0.3373668
138	0xbea6f786	-0.3261072
139	0x3de5fe5b	0.11230155
140	0xbe2e9f7a	-0.17053023
141	0xbeb3aa8d	-0.35091057
142	0xbccaad3a	-0.024740804
143	0x3ef0d620	0.47038364
144	0x3e849203	0.25892648
145	0xbd4d55e1	-0.05013073
146	0xbe3680c9	-0.17822565
147	0xbed4a6b5	-0.41533437
148	0x3a3f408c	0.000729569
149	0x3c7edd83	0.015555742
150	0xbe8d77a1	-0.27630332
151	0x3eae475d	0.3403882
152	0x3ee12d84	0.43980038
153	0x3eb8bb47	0.3608038
154	0xbe496fc4	-0.19671541
155	0x3ecdda18	0.40205455
156	0xbe0a71f0	-0.13520026
157	0x3e88cf92	0.26720864
158	0xbe8264e7	-0.25467607
159	0x3ecc7c31	0.399385
160	0x3e4bb9c5	0.19895084
161	0xbee43f61	-0.44579604
162	0xbe3b3484	-0.18281752
163	0xbddb095a	-0.10695143
164	0x3ee1b01d	0.44079676
165	0xbe337c50	-0.1752789
166	0xbe6e41cf	-0.23267291
167	0xbedcad97	-0.4310119
168	0x3ecc0035	0.39843908
169	0x3dd170f9	0.10226626
170	0xbe9e2f3d	-0.30895415
171	0xbe093471	-0.13398911
172	0x3c4ba13c	0.012428578
173	0x3ee0f48c	0.43936574
174	0xbee7922d	-0.4522871
175	0x3d452c4c	0.048137948
176	0xbe0bcc93	-0.13652258
177	0xbe0736eb	-0.13204543
178	0xbe20def9	-0.15710057
179	0xbdfcc92b	-0.12343057
180	0x3e76ede0	0.2411418
181	0x3e4a7400	0.19770813
182	0x3dc69709	0.096967764
183	0xbe8a39d9	-0.2699726
184	0xbe0d4dce	-0.13799211
185	0x3e868b17	0.26277992
186	0xbe1a4dbb	-0.15068714
187	0xbe23b91b	-0.15988581
188	0xbcb9e7f0	-0.022693604
189	0xbe5b074b	-0.21389501
190	0xbea7aa71	-0.32747224
191	0x3eb77a25	0.35835376
192	0x3edf0ff3	0.43566856
193	0x3e311e42	0.17296699
194	0xbcaa46b6	-0.02078567
195	0xbe1061d3	-0.14099817
196	0x3e955604	0.29167187
197	0x3ed1416d	0.40870228
198	0x3ec217f3	0.37908897
199	0x3e95ba64	0.29243767
200	0xbd440120	-0.047852635
201	0xbbc51bea	-0.0060152905
202	0x3ec3fad0	0.38277292
203	0x3e4fbd96	0.20287165
204	0x3ee41172	0.4454456
205	0xbe6cf17c	-0.23138994
206	0x3ed0581c	0.40692222
207	0xbea8a3c2	-0.32937437
208	0xbeba5f71	-0.3640094
209	0xbe0f878c	-0.14016551
210	0x3ccd1bf3	0.025037741
211	0xbe3a0acb	-0.1816818
212	0xbca265bc	-0.019823901
213	0xbe37cf1e	-0.17950103
214	0xbe1d37e6	-0.15353355
215	0x3ed42ab2	0.41438824
216	0xbec00cd3	-0.37509784
217	0x3ec3fca8	0.382787
218	0xbe46d47c	-0.19416994
219	0x3e2618b0	0.16220355
220	0xbe86e093	-0.26343212
221	0x3e442de0	0.19158125
222	0xbdbe0099	-0.09277458
223	0x3d2dc5f2	0.042425103
224	0xbe00e9db	-0.12589209
225	0xbcbce125	-0.023056576
226	0xbe8713e5	-0.26382366
227	0xbea6f873	-0.32611427
228	0x3ea02090	0.31274843
229	0xbd6d05de	-0.057866924
230	0x3db0f9a2	0.08641364
231	0xbec4869d	-0.38383952
232	0xbf006254	-0.50150037
233	0xbde97ce8	-0.11400777
234	0x3e80768f	0.25090453
235	0x3dbc8d81	0.09206677
236	0xbeef53ae	-0.4674353
237	0xbeca91ff	-0.3956451
238	0x3e6f726a	0.23383489
239	0x3d4f3865	0.05059089
240	0xbed4dd40	-0.4157505
241	0x3e24ee0d	0.16106434
242	0x3e21995b	0.15781157
243	0x3ead9169	0.33900002
244	0xbdbec526	-0.09314947
245	0xbeb191ca	-0.3468154
246	0xbe4a8d41	-0.19780447
247	0xbdb6c352	-0.08923973
248	0xbee3446d	-0.44388142
249	0xbe41a79a	-0.18911591
250	0x3e58f840	0.2118845
251	0xbec65f4f	-0.3874459
252	0x3e8a486f	0.27008387
253	0xbe1fb9bb	-0.15598194
254	0x3d8884f3	0.06665983
255	0x3da07d38	0.078363836

hidden.0.weight f4 [256, 256]
0	0xbd0e432c	-0.03473203
1	0xbd77737b	-0.060412865
2	0x3ccaafe2	0.02474207
3	0xbb1286ab	-0.00223581
4	0xbd1f23b1	-0.038852397
5	0x3cc26493	0.023729598
6	0xbc5e4fe5	-0.013568853
7	0xbac57b0b	-0.0015066577
8	0x3d9caa89	0.076497145
9	0x3b1a2941	0.0023523124
10	0x3d30671f	0.043067094
11	0x3b0f63f0	0.0021879636
12	0xbd21cf15	-0.03950413
13	0xbc34943b	-0.011021669
14	0xbd3ad62d	-0.04561441
15	0xbd08a8e6	-0.0333642
16	0xbb989605	-0.0046565556
17	0x3c5786db	0.013154711
18	0xbd40f540	-0.04710889
19	0x3db6ac3b	0.08919569
20	0x3d930759	0.07179136
21	0xbd2547a0	-0.04035151
22	0x3d4a355d	0.049367297
23	0x3d06330e	0.032763533
24	0x3d94ea5a	0.072712615
25	0xbd001f34	-0.031279758
26	0xbd6c35de	-0.05766856
27	0xbc2259a4	-0.009909067
28	0x3d19f034	0.03758259
29	0xbe0017ee	-0.12509128
30	0x3d844f18	0.064603984
31	0x3b7155c8	0.0036824811
32	0x3d2381e4	0.039918795
33	0xbd4f73ac	-0.050647423
34	0xbc2fd10d	-0.010730994
35	0xbd041078	-0.03224227
36	0x3d4c1406	0.049823783
37	0xbcf2109c	-0.029548936
38	0x3d545f85	0.051848907
39	0x3da8f113	0.08249106
40	0xbc85ac76	-0.016317587
41	0xbd6762c0	-0.05649066
42	0xbcdf056d	-0.027224267
43	0xbd39b73c	-0.04534076
44	0xbcb090b3	-0.021553373
45	0xbca80b21	-0.02051312
46	0x3d5b69d6	0.05356773
47	0x3b55514e	0.0032549682
48	0xbbdcc724	-0.0067376066
49	0xbd1810e3	-0.03712548
50	0xbd069e02	-0.03286553
51	0xbc4c2c15	-0.012461682
52	0xbc57e557	-0.0131772375
53	0x3c9378a5	0.018001864
54	0xbc4951ea	-0.012287596
55	0xbd9be354	-0.07611719
56	0xbd53f552	-0.051747628
57	0x3c7a414f	0.01527436
58	0xbd0edc7e	-0.034878246
59	0x3d1c9349	0.0382264
60	0x3c8654ba	0.016397823
61	0x3bd858e0	0.0066023916
62	0xbd0f3c2f	-0.034969505
63	0x3c50d245	0.012745445
64	0xbd537ac7	-0.05163076
65	0x3cf634a2	0.030054394
66	0xbe3d403c	-0.18481535
67	0x3cf5c336	0.03000031
68	0x3d609519	0.05482969
69	0x3c29769d	0.010343221
70	0xbcf735ff	-0.030177115
71	0xbd5020b7	-0.05081245
72	0xbd191f51	-0.03738338
73	0xbd518eeb	-0.051161688
74	0xbbb391dd	-0.0054800347
75	0xbb98282d	-0.004643461
76	0xbd2869da	-0.041116573
77	0xbd295e75	-0.041349847
78	0xbbbaa3c3	-0.0056957914
79	0x3bfd4471	0.007729106
80	0x3b88a122	0.004169599
81	0xbd50ce7b	-0.050978165
82	0x3d736bb5	0.05942889
83	0x3c913261	0.017724218
84	0xbd5589e9	-0.052133474
85	0xbc97915c	-0.01850193
86	0xbd4b09f9	-0.049570058
87	0xbd4b7053	-0.049667668
88	0xbd12e589	-0.035863433
89	0x3c973880	0.018459558
90	0x3c00c3ef	0.007859214
91	0x3d74d857	0.05977663
92	0xbdae37b4	-0.08506718
93	0xb8229ef0	-3.8771832e-05
94	0x3d5c7dd3	0.053830933
95	0x3d6c2eb2	0.05766172
96	0xbe6fc344	-0.23414332
97	0xbd7bd5af	-0.06148308
98	0x3d8f58ee	0.06999384
99	0x3b2adecd	0.002607274
100	0xbd689e53	-0.056791615
101	0x3b57d2a4	0.0032931948
102	0xbc6e46c6	-0.014543241
103	0xbc412a65	-0.011789893
104	0x3bc20fbe	0.005922287
105	0x3d18b209	0.037279163
106	0xb9fcf870	-0.00048250286
107	0x3d48f4e3	0.049061667
108	0x3d39799c	0.04528199
109	0xbc992e26	-0.018698763
110	0xbd9d7c00	-0.07689667
111	0xbd4ff238	-0.050768107
112	0x3a5f79d6	0.000852493
113	0x3d13c107	0.036072757
114	0xbdb5f0b4	-0.08883801
115	0x3d6eb7b3	0.058280658
116	0x3d569a1d	0.052393068
117	0x3d9484d6	0.07251899
118	0xbd48e371	-0.04904503
119	0xbd39c21d	-0.045351136
120	0xbd9cbdc1	-0.0765338
121	0x3cd1a45d	0.02559107
122	0xbd09999a	-0.03359375
123	0x3d58dea6	0.05294671
124	0xbcce24b2	-0.025163982
125	0x3dd756e3	0.10514619
126	0x3ce30e13	0.027716672
127	0xbd2aaf43	-0.04167105
128	0xbafa37ec	-0.0019090152
129	0x3c90966e	0.017649855
130	0xbd876e81	-0.06612874
131	0x3dbe7c25	0.093010224
132	0xbcab01df	-0.020874916
133	0xbd3820eb	-0.044953268
134	0xbc71e5b1	-0.014764235
135	0x3b5c4400	0.0033609867
136	0xbbdd3dc8	-0.0067517497
137	0x3c217f1e	0.009856967
138	0x3d3747e2	0.044746287
139	0xbcfd0fc0	-0.0308913
140	0x3c48e38f	0.012261285
141	0x3c7c7a07	0.015409953
142	0xbcc11dac	-0.023573719
143	0xbcb49c56	-0.022047203
144	0xbd021bbc	-0.03176473
145	0xbe1128f8	-0.14175785
146	0x3d066fd6	0.0328215
147	0xbd8a74e8	-0.06760579
148	0xbdd34404	-0.10315707
149	0xbc84d678	-0.016215548
150	0x3c2737c4	0.010206167
151	0x3bdde485	0.0067716264
152	0xbd2eb56e	-0.042653494
153	0xbc7eeae9	-0.015558937
154	0x3ca2187a	0.019787062
155	0x3d9d9f7d	0.076964356
156	0x3d551a41	0.05202699
157	0xbc8ab774	-0.01693318
158	0x3d41d864	0.047325507
159	0x3d3b1782	0.045676716
160	0xbca82477	-0.0205252
161	0xbd7874be	-0.06065821
162	0x3cb6aa59	0.022298025
163	0xbd6332a1	-0.055468205
164	0x3bcbe185	0.0062219524
165	0xbd2380f5	-0.039917905
166	0xbd63f08e	-0.055649333
167	0xbd00c0aa	-0.03143374
168	0x3cef070d	0.029178167
169	0x3e0205db	0.12697546
170	0x3d52a52b	0.051427048
171	0x3ceb5101	0.02872515
172	0x3cd970c5	0.02654303
173	0x3b904b1c	0.004403485
174	0xbd3c6094	-0.04599054
175	0xbd4aaea0	-0.04948294
176	0x3d66516c	0.056229994
177	0x3de6ee31	0.112759
178	0xbd5c8543	-0.053838026
179	0xbbed4c3b	-0.0072417534
180	0x3c9168bc	0.017750137
181	0xbdc90a67	-0.09816437
182	0x3c9992f6	0.018746834
183	0x3d25bfaa	0.04046599
184	0xbcb38a0e	-0.021916416
185	0xbb9d603f	-0.004802733
186	0x3e062f44	0.13103968
187	0xbc67e645	-0.014154022
188	0x3d8ef0eb	0.06979545
189	0x3ce2a98c	0.027668737
190	0x3ce364a8	0.027757958
191	0x3c1b7d28	0.009490289
192	0x3d0df16e	0.034654073
193	0xbd71622b	-0.05893151
194	0xbd002766	-0.031287573
195	0x3cfcc157	0.03085391
196	0xbd02253a	-0.031773783
197	0x3c988c2d	0.018621529
198	0xbc786733	-0.015161323
199	0x3cae47fa	0.021274555
200	0x3d873752	0.066023484
201	0xbe2d5905	-0.1692849
202	0x3ca35878	0.019939646
203	0x3ca4067a	0.02002262
204	0xbc0e318b	-0.008678804
205	0x3ab1bc00	0.0013560057
206	0xbd502302	-0.050814636
207	0xbcaa4fba	-0.02078997
208	0x3d368063	0.044556033
209	0x3ddd5f43	0.10809185
210	0x3d2b64da	0.041844226
211	0x3da78784	0.081801444
212	0xbd2eb485	-0.042652626
213	0x3d1f631e	0.038912885
214	0x3d0da164	0.034577742
215	0xbc16b21e	-0.00919774
216	0xbd72ce58	-0.059278816
217	0xbd503c20	-0.05083859
218	0xbdeeca42	-0.11659671
219	0xbd86c9ab	-0.06581434
220	0xbcfe855b	-0.031069448
221	0xbcbe06af	-0.023196546
222	0xbe0947ee	-0.13406345
223	0xbb604725	-0.0034222093
224	0x3c047500	0.008084536
225	0x3de910f3	0.11380186
226	0xbc97a417	-0.018510861
227	0xbc8b56c5	-0.017009148
228	0xbd4864ea	-0.048924364
229	0x3c4ce15d	0.012504903
230	0xbd60e0cd	-0.054901887
231	0x3d8db783	0.06919768
232	0xbd533da1	-0.051572446
233	0xbceec215	-0.02914528
234	0x3d34697b	0.044045907
235	0xbd3fc8e1	-0.046822432
236	0xbd3acaed	-0.04560368
237	0xbd11dfb1	-0.03561372
238	0x3d5a3971	0.053277437
239	0x3cb4dabf	0.022076963
240	0x3c6d157b	0.014470453
241	0xbc671214	-0.014103431
242	0xbd50ee03	-0.051008236
243	0x3d72ea57	0.059305515
244	0xbc9c7f47	-0.01910366
245	0xbc8abf15	-0.016936818
246	0x3cf08b76	0.029363375
247	0xbd8d67a7	-0.06904536
248	0x3d3fd968	0.046838194
249	0x3a91453c	0.0011083256
250	0x3c7f8bd2	0.015597301
251	0x3d301369	0.04298726
252	0x3cd6229b	0.026139548
253	0x3cd06829	0.025440292
254	0x3d16ddc4	0.036832586
255	0xbc0c0249	-0.008545467

hidden.0.bias f4 [256]
0	0x3c2a99b6	0.010412624
1	0xbcdb1187	-0.026741756
2	0xbd41060d	-0.04712491
3	0xbd03dd92	-0.032193728
4	0xbcdf597a	-0.027264345
5	0xbd81a878	-0.06330961
6	0xbcb00a7a	-0.02148937
7	0x3c83593c	0.016033761
8	0xbca6e719	-0.020373868
9	0x3d08f032	0.033432193
10	0x3b531fcf	0.0032215004
11	0xbd4879e6	-0.048944376
12	0x3d121191	0.035661284
13	0xbd471097	-0.048599806
14	0xbd7899e8	-0.06069365
15	0x3cf6935e	0.030099567
16	0xbd82d839	-0.063888974
17	0x3c88bcdd	0.01669162
18	0x3bbe4e79	0.0058076945
19	0x3d50186b	0.050804537
20	0xbb5c6e38	-0.0033635031
21	0xbd8eea36	-0.06978266
22	0x3d177aad	0.036982227
23	0xbd27e9e9	-0.04099456
24	0x3d892b64	0.06697729
25	0xbd55a01d	-0.05215465
26	0x3ca038b7	0.019558294
27	0xbd94c71c	-0.072645396
28	0x3c95b4ba	0.018274654
29	0xbd12da69	-0.035852823
30	0x3d1909ee	0.037362985
31	0x3cc3c0b6	0.023895603
32	0xbd37ca39	-0.04487059
33	0xbcd056a1	-0.025431933
34	0x3d8e998f	0.06962883
35	0x3d4eae5f	0.050459262
36	0xbd5c4a65	-0.053781886
37	0x3d246de2	0.040143855
38	0xbd5c74c2	-0.053822286
39	0xbb2c4140	-0.002628401
40	0xbc2424ac	-0.010018509
41	0x3d024a3e	0.031809084
42	0xbd50a08b	-0.050934356
43	0x3c593b11	0.013258711
44	0xbd071ad4	-0.03298457
45	0xbbb32a74	-0.0054677073
46	0xbdab0eb0	-0.08352411
47	0x3c616223	0.013756308
48	0x3d28e9f9	0.04123876
49	0x3c448f4a	0.011997053
50	0x3d0f56dc	0.034994945
51	0xbc98d42d	-0.01865586
52	0xbcec1c83	-0.02882219
53	0x3cf9672d	0.030444706
54	0xbd41e5da	-0.047338344
55	0xbc378174	-0.011200298
56	0xbd0164db	-0.031590324
57	0xbbce0ee0	-0.0062883943
58	0x3c18dc33	0.009329843
59	0xbb8716ef	-0.004122607
60	0xbdb11adf	-0.086477034
61	0x3cda3d05	0.026640425
62	0xbcaed927	-0.02134378
63	0x3cc6a8c2	0.024250392
64	0x3d23ea39	0.040018294
65	0x3d7a1fc8	0.061065465
66	0xbd7353e3	-0.059406172
67	0xbbeb9384	-0.007189216
68	0xbc08557b	-0.008321161
69	0xbcac44c1	-0.021028878
70	0x3c35aef1	0.011089073
71	0xbd714b2b	-0.058909576
72	0xbd7c5997	-0.061608877
73	0xbd15426a	-0.03644029
74	0xbd26ec01	-0.040752415
75	0x3c9ab2c6	0.018884074
76	0x3d544e72	0.051832624
77	0x3d560cdd	0.05225836
78	0x3d6a7c4f	0.057247456
79	0xbd83ac84	-0.06429389
80	0xbd8661c9	-0.0656162
81	0xbcae854b	-0.021303793
82	0xbcb73bcd	-0.022367382
83	0xbcc666e6	-0.024218988
84	0xbd292120	-0.041291356
85	0xbc4e9d97	-0.0126108145
86	0x3c9be23d	0.019028777
87	0x3c76f2c7	0.015072531
88	0xbc1a429b	-0.009415294
89	0xbd1c6cc7	-0.038189676
90	0xbcf3868b	-0.029727241
91	0x3d59f20c	0.05320935
92	0xbc9a6783	-0.018848186
93	0xbd10375a	-0.035209037
94	0x3cae9004	0.021308906
95	0x3ce9574c	0.02848401
96	0xbcb6dcc4	-0.022322066
97	0x3c984654	0.018588223
98	0x3d497f6f	0.049193796
99	0xbcd03665	-0.025416562
100	0xbdaa0546	-0.08301787
101	0x3c53f925	0.012937819
102	0x3d3209ae	0.043466263
103	0xbd978284	-0.07397941
104	0xbc448c54	-0.011996347
105	0xbcced0b1	-0.025245996
106	0xbd8f07eb	-0.06983932
107	0xbb090e40	-0.0020913035
108	0x3ca16491	0.019701274
109	0x3d0ab56a	0.033864416
110	0xb991e26f	-0.0002782526
111	0x3d0d98cd	0.03456955
112	0xbc0f1c26	-0.008734738
113	0xbd845cd3	-0.06463017
114	0x3d1b2e74	0.037886098
115	0x3c120050	0.008911207
116	0xbcbb9890	-0.022899896
117	0x3b418e2e	0.0029534209
118	0xbd00c10c	-0.031434104
119	0x3d84a805	0.0647736
120	0x3c63defa	0.013908142
121	0xbc9f34f3	-0.019434428
122	0x3d0f3a79	0.034967873
123	0xbc2fb0db	-0.010723318
124	0xbc206fe9	-0.009792306
125	0x3d480e06	0.0488415
126	0xbb00d94a	-0.0019660764
127	0x3d4dbc80	0.050228596
128	0xbcce395b	-0.025173834
129	0xbd42e748	-0.04758385
130	0xbb1b4c93	-0.0023696765
131	0xbd23e84e	-0.040016465
132	0xbd916147	-0.07098632
133	0x3d5d4047	0.054016378
134	0xbd5ed006	-0.054397605
135	0xbceeaa10	-0.029133826
136	0xbd8df432	-0.06931342
137	0x3c93d564	0.018046089
138	0x3d0bbfc5	0.034118433
139	0x3cbba1d4	0.022904314
140	0xbd85f366	-0.06540565
141	0x3d1ed304	0.03877546
142	0xbd9c8e3d	-0.07644317
143	0x3b94721d	0.004530205
144	0x3d15ffb8	0.036620826
145	0xbd47003c	-0.048584208
146	0x3c3d26fd	0.01154494
147	0xbc8c4295	-0.017121593
148	0xbcb55eea	-0.022139985
149	0xbd34a8e2	-0.04410637
150	0xbd4fc88c	-0.050728366
151	0xbdcc03c4	-0.09961656
152	0x3d19fb96	0.037593447
153	0x3cd840d6	0.026398104
154	0x3ce3d3e5	0.027811
155	0xbd419b69	-0.04726735
156	0xbc54f775	-0.0129984515
157	0xbd1f4494	-0.03888376
158	0x3be1fec3	0.006896825
159	0x3d473e22	0.04864324
160	0x3c9b9b3f	0.018994926
161	0x3d2d6f94	0.042342737
162	0xbc90d6f8	-0.01768063
163	0xbd6b6214	-0.05746658
164	0x3ca3807e	0.01995873
165	0x3d63c4b9	0.05560753
166	0xbcfad518	-0.03061919
167	0xbd5b1e17	-0.053495493
168	0x3ce65257	0.028115435
169	0xbd5b7ea0	-0.053587556
170	0x3c95156d	0.018198693
171	0xbd669cc7	-0.05630186
172	0xbc672afa	-0.0141093675
173	0xbd7710ad	-0.060318638
174	0xbd93ad06	-0.07210736
175	0xbbd18769	-0.006394316
176	0xbd4e435a	-0.0503572
177	0xbd704cd4	-0.05866702
178	0x3caab155	0.020836512
179	0x3d0cfc96	0.034420572
180	0xbb34860b	-0.0027545716
181	0xbd72cb0e	-0.05927568
182	0xbcbdd5e3	-0.023173278
183	0xbd3eebb8	-0.046611518
184	0xbda1aa2d	-0.078937866
185	0x3d2a21bd	0.04153608
186	0xbd357b8c	-0.044307277
187	0x3cfea193	0.031082904
188	0xbc723287	-0.0147825545
189	0x3c98e03d	0.018661613
190	0x3d224de9	0.039625082
191	0x3cebafb1	0.0287703
192	0x3d3ed587	0.046590354
193	0x3c69caec	0.014269572
194	0xbd5eaadb	-0.05436216
195	0x3d3ebc7f	0.046566483
196	0x3cffcf7d	0.031226868
197	0xbd4310c7	-0.047623422
198	0xba1fb9de	-0.0006093065
199	0xbc908095	-0.017639438
200	0xbb694e71	-0.0035599733
201	0x3d07e23e	0.033174746
202	0xbd1b2cea	-0.03788463
203	0x3d07d945	0.03316619
204	0xbcc2f223	-0.0237971
205	0x3cfc4509	0.030794637
206	0x3c821b79	0.01588224
207	0xbd4bde14	-0.049772337
208	0x3cfd2076	0.030899268
209	0x3ce428d0	0.027851492
210	0xbd04007b	-0.03222702
211	0xbd6f7516	-0.05846127
212	0x3c07183d	0.008245525
213	0xbda3efb1	-0.08004702
214	0xbd0efc0f	-0.03490835
215	0xbd3f77e4	-0.046745196
216	0x3c353fa9	0.011062541
217	0xbc79c667	-0.015245057
218	0xbd00dc0f	-0.031459864
219	0xbd09f5ce	-0.033681683
220	0xbdae3025	-0.085052766
221	0xbd3e6529	-0.046483193
222	0x3c80249f	0.015642462
223	0xbd38fb30	-0.045161426
224	0xbd2ab892	-0.041679926
225	0x3cb51b46	0.022107732
226	0xbd1c709d	-0.038193334
227	0x3ccba2c9	0.024857895
228	0x3cb3a857	0.021930857
229	0xbc760947	-0.01501686
230	0xbd695fae	-0.056976013
231	0xbd841c68	-0.064507306
232	0xbcabaf2a	-0.020957548
233	0xbc348382	-0.011017682
234	0xbd39784a	-0.045280732
235	0xbd5b1a54	-0.053491905
236	0x3ca8c943	0.020603782
237	0xbbd23760	-0.0064152926
238	0xbd94ce63	-0.07265928
239	0xbd29de42	-0.041471727
240	0xbdcdbd18	-0.100458324
241	0xbac5555b	-0.0015055345
242	0x3cf7f993	0.030270373
243	0x3cda4910	0.026646167
244	0x3d8a5dc4	0.067561656
245	0x3d1a7c43	0.03771616
246	0x3d3dde6d	0.0463547
247	0xbcc85271	-0.024453374
248	0xbd29ca43	-0.041452657
249	0x3c8d670f	0.017261056
250	0xbd146452	-0.036228485
251	0x3c6c2bc0	0.014414728
252	0x3d47c946	0.048775934
253	0x3d4dd11f	0.05024826
254	0xbd5a222b	-0.05325524
255	0x3ba618d6	0.0050688786

hidden.2.weight f4 [256, 256]
0	0x3d55184a	0.052025117
1	0xbd04a692	-0.032385416
2	0xbc852747	-0.01625408
3	0x3c38971b	0.011266495
4	0x3d2828d7	0.041054573
5	0xbc29e261	-0.010368914
6	0xbadd2dd4	-0.001687462
7	0x3ced12e1	0.028939666
8	0xbc474fab	-0.01216499
9	0x3cc8fd3b	0.024534812
10	0x3cb69d18	0.022291705
11	0xbd1e08c5	-0.038582582
12	0xbd8b883a	-0.068130925
13	0xbcffa5b3	-0.031206941
14	0x3d1515c5	0.036397714
15	0x3c8a5195	0.016884604
16	0xbd486e7a	-0.048933484
17	0x3cd57436	0.02605639
18	0xbc8a341c	-0.01687055
19	0xbd56a951	-0.052407566
20	0x3c3127d8	0.010812722
21	0x3c941016	0.018074077
22	0xbd228515	-0.0396777
23	0xbd3bf76f	-0.045890268
24	0xbd77ddef	-0.060514387
25	0xbd366fbc	-0.044540152
26	0xbd3bee59	-0.045881603
27	0xbc1346c0	-0.008989036
28	0x3cde5224	0.027138777
29	0xbc2e191a	-0.010626102
30	0x3ce1c3c5	0.02755917
31	0x3c3efa8d	0.011656416
32	0xbd3428b2	-0.043984123
33	0xbd0153c9	-0.031574044
34	0xbd69e4f9	-0.05710313
35	0xbd521ebb	-0.051298838
36	0xbc8473d0	-0.016168505
37	0x3c0dcb20	0.008654386
38	0xbc4221d0	-0.011848882
39	0x3b39368e	0.0028261277
40	0xbd2f4573	-0.04279084
41	0xbab71602	-0.0013968351
42	0xbd0ff468	-0.035145193
43	0x3cb7bb2b	0.022428116
44	0xbd902593	-0.07038417
45	0xbd89efc4	-0.06735185
46	0xbbc00b02	-0.0058606872
47	0xbd44cb57	-0.048045482
48	0xbd5351b4	-0.05159159
49	0xbcb648df	-0.022251545
50	0xbd6c3116	-0.057664
51	0x3c403ada	0.011732781
52	0xbd94fcc4	-0.07274774
53	0xbd47dac3	-0.04879261
54	0xbd51b762	-0.051200278
55	0x3cccf25d	0.025017912
56	0xbd7e4b4c	-0.062083527
57	0xbd667bb7	-0.056270327
58	0xbd453228	-0.048143536
59	0x3cb8a4a2	0.02253944
60	0xbcf5116e	-0.029915538
61	0x3c470789	0.012147793
62	0x3c7c975a	0.015416944
63	0xbcf71b00	-0.030164242
64	0xbd3dbe77	-0.04632422
65	0x3be36c58	0.006940406
66	0xbc1226c2	-0.008920373
67	0xbcc59721	-0.024119915
68	0x3c80ee77	0.015738709
69	0x3c9b09cd	0.018925572
70	0xbc9dae12	-0.019248042
71	0x3d57d57b	0.052693825
72	0xbc999ec3	-0.018752461
73	0x3c53d55d	0.012929288
74	0xbd0e3706	-0.034720443
75	0xbcaa627e	-0.020798918
76	0x3baabfad	0.005210838
77	0xbceb848b	-0.028749725
78	0xbd9a0bba	-0.07521768
79	0xbca6a830	-0.02034387
80	0x3be34d03	0.0069366707
81	0x3d42f865	0.04760017
82	0x3d80c690	0.06287873
83	0x3d2e9591	0.042623106
84	0x3c9740b7	0.018463476
85	0xbcae130f	-0.021249322
86	0x3c85fe45	0.016356597
87	0x3cddcec9	0.027076142
88	0x3ca66d1d	0.020315701
89	0x3d4d27eb	0.050086897
90	0xbd1d6636	-0.038427554
91	0x3d522a6c	0.051309988
92	0x3c60ed15	0.0137284
93	0x3bf50cd9	0.007478338
94	0xbd7a30c1	-0.06108165
95	0xbcc588d0	-0.024113089
96	0x3c81d4cf	0.015848545
97	0xbd698ce6	-0.057019137
98	0xbd70b66c	-0.05876772
99	0x3d9470b7	0.07248061
100	0x3ce667bb	0.028125634
101	0xbcd6269c	-0.026141457
102	0x3d381344	0.044940248
103	0xbd0a8e68	-0.033827215
104	0x3c8ae12c	0.016953073
105	0x3d340cf5	0.04395767
106	0xbcf07811	-0.029354127
107	0x3d0c517e	0.034257405
108	0xbd15bcc1	-0.036556963
109	0xbd457228	-0.04820457
110	0xbbc4c2ff	-0.0060046907
111	0x3ccefb45	0.025266299
112	0xbd89e595	-0.067332424
113	0x3d27d6cf	0.04097634
114	0xbd934553	-0.07190957
115	0x3cef31ef	0.029198615
116	0xbd7e5614	-0.06209381
117	0x3c7c41eb	0.015396575
118	0x3d336128	0.043793827
119	0xbcda6df2	-0.026663754
120	0xbca8c516	-0.02060179
121	0x3c77eb2f	0.015131756
122	0xbc5d54cd	-0.013508988
123	0xbcd5f9d1	-0.026120098
124	0x3d563a6c	0.05230181
125	0xbd824821	-0.06361414
126	0x3d5d5785	0.054038543
127	0xbd83ea7b	-0.06441208
128	0xbc25ce63	-0.010120007
129	0xbd62159c	-0.05519639
130	0x3c4ad058	0.012378775
131	0x3c6a4a44	0.014299933
132	0x3cc52906	0.024067413
133	0x3d1bee2d	0.03806894
134	0x3d4061dd	0.04696833
135	0xbc02270c	-0.00794388
136	0x3c731c7b	0.014838333
137	0x3cb6bdb9	0.022307264
138	0x3d4dbed7	0.050230827
139	0xbd54a672	-0.051916547
140	0xbcaeac12	-0.021322284
141	0x3c247a68	0.01003895
142	0x3d6b110d	0.057389308
143	0xbc696ac6	-0.014246648
144	0xbd65879d	-0.056037534
145	0x3d616d20	0.05503571
146	0xbd509276	-0.050920926
147	0xbb4d7ee2	-0.0031356146
148	0x3ce5db48	0.028058663
149	0xbd854504	-0.06507304
150	0xbcf3c96b	-0.02975913
151	0x3d41a373	0.047275018
152	0xbc0cd9c3	-0.00859684
153	0x3d46d588	0.048543483
154	0xbd29b90d	-0.041436244
155	0x3cf44a5f	0.02982062
156	0xbcc2639b	-0.023729136
157	0xbd7ab60c	-0.06120877
158	0x3c0406ee	0.008058293
159	0xbd09e789	-0.033668075
160	0x3d597392	0.053088732
161	0x3c929e13	0.017897641
162	0xbd842851	-0.06453002
163	0xbd4016dd	-0.046896804
164	0xbd86b611	-0.06577695
165	0x3c2d8fb8	0.010593347
166	0xbcbde6f2	-0.023181412
167	0xbcc12592	-0.023577485
168	0xbd51200b	-0.05105595
169	0xbd1ef11e	-0.038804166
170	0xbcc5ef40	-0.024161935
171	0xbc1322c9	-0.008980461
172	0x3d899451	0.06717742
173	0x3d2b83b2	0.04187364
174	0x3d6693d6	0.05629333
175	0xbd913ee8	-0.070920765
176	0x3d27ac1d	0.040935624
177	0xbc60a1ad	-0.0137104215
178	0x3caba4a6	0.020952534
179	0xbd3547c2	-0.044257887
180	0xbd824305	-0.06360439
181	0x3a4a7474	0.00077230413
182	0x3a8f541b	0.00109351
183	0xbc18a948	-0.009317704
184	0x3d0f819a	0.035035707
185	0xbd52cc74	-0.051464513
186	0x3d419034	0.047256663
187	0x3d6e350f	0.05815607
188	0x3be03829	0.0068426323
189	0x3c8786de	0.016543802
190	0x3ce5756a	0.028010089
191	0xbd27576c	-0.040854856
192	0x3d0d8791	0.034553114
193	0x3bc578f1	0.00602638
194	0x3d54f255	0.05198892
195	0x3d091f40	0.033477068
196	0xbd78fde7	-0.060789015
197	0xbd3220b8	-0.043488234
198	0x3d2c8689	0.04212049
199	0x3d90940b	0.07059487
200	0xbd5fe7da	-0.05466447
201	0xbd43edbc	-0.047834143
202	0x3d408346	0.047000192
203	0x3d23f40c	0.040027663
204	0x3d266802	0.040626533
205	0xbbeed1b0	-0.0072881803
206	0x3ca2a85b	0.019855669
207	0x3d78468e	0.06061416
208	0xbd90b055	-0.07064883
209	0x3d18a077	0.037262406
210	0x3d4da350	0.050204575
211	0x3d3b441c	0.04571925
212	0xbd941572	-0.07230653
213	0x3d23327a	0.03984306
214	0xbd8240d2	-0.0636002
215	0x3d370560	0.04468286
216	0xbca54ba8	-0.020177677
217	0xbd8105c5	-0.062999286
218	0x3b3fe939	0.0029283299
219	0x3c216aac	0.009852093
220	0x3c00569a	0.007833147
221	0x3b503dd3	0.0031775131
222	0x3a08677c	0.00052034087
223	0x3d5a4baf	0.053294834
224	0x3cc10a2e	0.023564424
225	0xbd0fd131	-0.03511161
226	0xbd5b20f3	-0.05349822
227	0xbb8dd0f6	-0.0043278886
228	0x3d404da1	0.046949033
229	0xbd587c64	-0.052853003
230	0xbd1967ce	-0.03745251
231	0xbc6bc51f	-0.014390259
232	0xbd744d93	-0.059644293
233	0xbcc2e638	-0.023791417
234	0x3c49383c	0.012281474
235	0xbd87b18f	-0.066256635
236	0xbc6eb700	-0.014569998
237	0x3d1140a1	0.035462026
238	0x3ca1a3fc	0.019731514
239	0xbcb8f010	-0.022575408
240	0x3d1227db	0.03568254
241	0x3c189551	0.009312944
242	0xbd80560b	-0.062664114
243	0x3d68c7b1	0.056831066
244	0x3d26c50d	0.040715266
245	0xbcbcf5a5	-0.023066351
246	0xbb033ac4	-0.002002404
247	0x3c179c0a	0.009253511
248	0x3c993485	0.018701801
249	0x3d144eee	0.036208086
250	0xbcbabcfd	-0.022795195
251	0x3cb0aea5	0.021567652
252	0xbd0b37a1	-0.0339886
253	0xbd121eec	-0.03567402
254	0xbd11256c	-0.03543608
255	0x3ceee4ba	0.0291618

hidden.2.bias f4 [256]
0	0xbc829c33	-0.015943622
1	0x3dad0e0f	0.08449947
2	0x3d86ef86	0.06588654
3	0xbb927a27	-0.004470128
4	0x3d597eae	0.053099327
5	0xbccd1e89	-0.025038974
6	0xbd2ae57f	-0.04172277
7	0x3c5069b0	0.01272051
8	0xbba22713	-0.0049485057
9	0x3ca6c9b1	0.020359846
10	0x3cb60759	0.0222203
11	0x3b64ac83	0.0034892864
12	0xbd4caed3	-0.049971413
13	0xbbcb9137	-0.0062123793
14	0xbcddb9c7	-0.027066125
15	0xbce1e1de	-0.027573522
16	0xbc6fac6b	-0.01462851
17	0x3c5af3e2	0.01336381
18	0x3c286e31	0.010280178
19	0x3c873892	0.016506467
20	0xba9990a5	-0.0011716081
21	0x3c97aaa7	0.01851399
22	0xbd535681	-0.05159617
23	0xbd3ec0cd	-0.046570588
24	0xbb8dae28	-0.0043237396
25	0xbb62bae2	-0.0034596254
26	0xbd1e07be	-0.038581602
27	0x3d0d65d3	0.034520935
28	0x3cd3cd8e	0.025854852
29	0xbc8bacb3	-0.017050123
30	0x3acd872a	0.0015680541
31	0xbd16a939	-0.036782477
32	0xbd0de449	-0.034641538
33	0xbcb9cf58	-0.022681877
34	0xbd08b681	-0.033377174
35	0xbb983f5d	-0.0046462254
36	0x3c5aa172	0.013344156
37	0xbc95d78b	-0.018291255
38	0x3c4e18da	0.012579167
39	0x3d3dcd62	0.046338446
40	0xbc32cdcd	-0.010913325
41	0x3b61e8eb	0.0034471105
42	0x3c76bbc2	0.015059413
43	0x3c16c07e	0.009201167
44	0xbaae67b3	-0.0013306051
45	0x3be6093f	0.007020145
46	0xbd413705	-0.04717161
47	0xbcaab668	-0.020838931
48	0x3c1d6a05	0.009607797
49	0xbd7ff4cf	-0.062489327
50	0x3c2141fd	0.009842393
51	0x3d05bbfe	0.032649986
52	0x3c5919f0	0.013250813
53	0xbd449531	-0.047993843
54	0x3d12ebc5	0.03586938
55	0x3c52d29e	0.012867598
56	0xbca6f46d	-0.020380223
57	0xbd5e4abb	-0.054270487
58	0x3d62e894	0.055397585
59	0x3d51316f	0.051072534
60	0xbc885df3	-0.016646361
61	0x3b27c488	0.002559932
62	0x3d90460a	0.07044609
63	0x3d41a797	0.047278967
64	0xbd035a42	-0.0320685
65	0x3d1281f4	0.035768464
66	0xba60709c	-0.0008561702
67	0xbd5bba00	-0.05364418
68	0xbb15fba3	-0.0022885583
69	0x3cfbcfc7	0.030738724
70	0x3d54b41c	0.05192958
71	0xba3c92c6	-0.0007193502
72	0x3d035298	0.03206119
73	0xbc3957a8	-0.011312403
74	0x3d9cb084	0.07650855
75	0xbb27d34a	-0.0025608116
76	0xbc54c544	-0.012986485
77	0x3c0347c5	0.008012717
78	0xbc3d6d88	-0.011561759
79	0xbd161fe2	-0.0366515
80	0xbc9590c5	-0.018257508
81	0xbd86a1e5	-0.06573848
82	0xbcd2c3f6	-0.025728207
83	0x3c1a03f7	0.009400359
84	0x3c50903b	0.0127297
85	0x3d656a63	0.05600966
86	0x3c2e5fed	0.010642988
87	0x3c94ea1a	0.018178035
88	0xbcc0a021	-0.023513855
89	0xbd245ee7	-0.04012957
90	0x3d59510f	0.05305582
91	0x3c540dc3	0.012942734
92	0xbd7d88ab	-0.061897915
93	0xbc2d0926	-0.010561263
94	0xbd06e85c	-0.03293644
95	0x3d3b5682	0.045736797
96	0x3d3c33a2	0.04594768
97	0x3c2ac814	0.010423679
98	0x3c9640f2	0.018341515
99	0x3d0f8ff4	0.035049394
100	0x3d93255a	0.071848586
101	0x3d1ed272	0.038774915
102	0xbd697db3	-0.05700464
103	0xbc81a5a1	-0.015826048
104	0xbd3e9182	-0.046525486
105	0xbd8d0392	-0.068854466
106	0x3c379ad2	0.011206346
107	0xbb974b23	-0.0046171113
108	0xbd335d9f	-0.043790456
109	0xbd8bc133	-0.06823959
110	0xbc183559	-0.009290063
111	0xbca66ca6	-0.02031548
112	0x3b9fffb1	0.0048827757
113	0x3d5786c1	0.052618746
114	0x3d11b008	0.035568267
115	0x3d9a91b5	0.07547323
116	0x3ce244d4	0.02762071
117	0x3ce326ef	0.027728526
118	0x3d5bd3fe	0.05366897
119	0xbd7f6ad3	-0.062357735
120	0xbc1c7aaa	-0.00955073
121	0xbd398f01	-0.045302395
122	0xbd43d8e9	-0.047814284
123	0x3c9891af	0.018624155
124	0xbb962aa1	-0.0045827185
125	0x3d3bfb59	0.045894
126	0xbcbc1544	-0.022959359
127	0xbb856c87	-0.0040717754
128	0x3d0a9542	0.03383375
129	0xbd5c9033	-0.053848457
130	0xbcd9f004	-0.026603706
131	0xbbfd15fe	-0.007723569
132	0x3d03d73c	0.032187685
133	0x3d2239ef	0.03960603
134	0xbb8d9f9c	-0.0043220054
135	0x3d90a7e4	0.070632726
136	0x3d7d559f	0.061849233
137	0xba3e310a	-0.0007255232
138	0x3d6a12fc	0.05714701
139	0xbd110fea	-0.035415567
140	0xbd05bf0a	-0.032652892
141	0x3d572cf0	0.05253309
142	0xbce663c7	-0.02812375
143	0xbc03ef78	-0.008052699
144	0x3d15cda8	0.036573082
145	0x3cd4bbc7	0.025968445
146	0xbd451195	-0.04811247
147	0x3c89b1e3	0.016808456
148	0x3d2eb0ca	0.042649068
149	0x3d652d26	0.05595126
150	0x3d1a2ca0	0.037640214
151	0x3c5880c8	0.013214298
152	0x3d339057	0.043838825
153	0xbc455f03	-0.012046578
154	0x3b897f44	0.0041960794
155	0x3c7e571c	0.015523698
156	0xbd1df488	-0.03856328
157	0xbd4a96f5	-0.04946037
158	0x3d08f7c4	0.033439413
159	0xbca04b2f	-0.0195671
160	0x3bc01a9f	0.0058625485
161	0xbb462fc1	-0.0030240866
162	0xbd7c3108	-0.061570197
163	0x3c9c5131	0.019081684
164	0x3d1534ce	0.03642731
165	0x3d2ef6c7	0.042715814
166	0x3cccdaaf	0.02500662
167	0xbd84b530	-0.06479871
168	0x3cbc54e1	0.022989692
169	0xbb0cd27f	-0.002148777
170	0xbcfc777a	-0.03081869
171	0x3a988656	0.0011636715
172	0x3d5662ec	0.052340433
173	0xbb604325	-0.0034219709
174	0x3d604680	0.054754734
175	0xbd3547f5	-0.044258077
176	0xbca50222	-0.020142619
177	0x3d35bc25	0.04436888
178	0x3c3809ed	0.011232835
179	0xbca33185	-0.019921074
180	0x3b24f975	0.0025173102
181	0xbc0fc447	-0.0087748235
182	0x3db4caf4	0.08827773
183	0xbcb5b2a0	-0.022179902
184	0x3d584e94	0.052809313
185	0x3c3d0084	0.0115357675
186	0xbbf493a6	-0.00746389
187	0x3ad077af	0.0015904809
188	0xbd5b5d0c	-0.053555533
189	0x3d7dd3ce	0.06196957
190	0x3c37320b	0.011181365
191	0x3cfb968d	0.030711437
192	0xbbbcfe87	-0.0057676467
193	0x3d422229	0.04739586
194	0x3c6e7b6b	0.014555792
195	0x3d3d3cce	0.046200566
196	0x3d19e9c7	0.037576463
197	0xbd7496bb	-0.05971406
198	0xbcac480b	-0.021030447
199	0xbd33cf88	-0.04389909
200	0x3d77ab27	0.060465958
201	0x3d4e3e31	0.05035228
202	0xbd74fd69	-0.059811983
203	0x3c4cf08f	0.0125085255
204	0x3d14b9d1	0.03631002
205	0x3bc50336	0.0060123457
206	0xbd32bf5f	-0.043639537
207	0x3da699e0	0.08134818
208	0x3db6ca12	0.089252606
209	0x3d48ad68	0.048993498
210	0xbd3a9747	-0.045554426
211	0xbb8c7587	-0.0042864713
212	0xbd3c7369	-0.0460085
213	0xba6e77e5	-0.0009096845
214	0xbbd346a5	-0.0064476305
215	0x3d2507e5	0.040290732
216	0x3cc21bc4	0.02369488
217	0xbd68ed9b	-0.056867223
218	0x3d3ab85c	0.045585975
219	0xbb8d6223	-0.0043146773
220	0xbc6de8d1	-0.01452084
221	0x3ce8fe77	0.02844165
222	0xbbccd3dd	-0.006250842
223	0xbd3eb71f	-0.046561357
224	0x3d45a921	0.048256997
225	0xbd8b5671	-0.06803597
226	0x3c3516c4	0.011052791
227	0x3b254dc8	0.0025223363
228	0xbd0893dc	-0.033344135
229	0xbd248535	-0.0401661
230	0xbc355dca	-0.011069724
231	0xbd4c5e4c	-0.049894616
232	0xbbdbc63c	-0.006706981
233	0x3d3ea0d0	0.04654008
234	0x3d542c80	0.05180025
235	0xbcf18ac6	-0.029485118
236	0xbbc29d9a	-0.0059391977
237	0x3cd94a8f	0.02652481
238	0xbb3b8661	-0.0028614032
239	0x3d1e6dcb	0.038678925
240	0xbce9ade5	-0.028525302
241	0xbd65fceb	-0.056149404
242	0xbd5406fc	-0.051764473
243	0x3d566823	0.052345406
244	0x3d48ada4	0.04899372
245	0xbb0e6719	-0.0021728931
246	0xbca5aac1	-0.020223023
247	0x3da3941e	0.079872355
248	0x3ccd5c34	0.02506838
249	0xbd72897f	-0.059213158
250	0xbceba707	-0.028766168
251	0xbd4aac8d	-0.049480963
252	0xbd33760c	-0.04381375
253	0xba587ba9	-0.0008258173
254	0xbc232189	-0.009956726
255	0x3d118f11	0.03553683

output.weight f4 [2, 256]
0	0xbcbb0ced	-0.022833312
1	0xbdb3557e	-0.08756541
2	0x3c0d34ee	0.008618576
3	0x3b5740d9	0.0032845049
4	0xbd946011	-0.07244886
5	0x3d8c65f4	0.068553835
6	0x3dd1c5ce	0.102428064
7	0xbcb40d47	-0.021978987
8	0x3c182b50	0.00928767
9	0x3d845882	0.06462194
10	0xbd5b1560	-0.05348718
11	0x3c038d62	0.008029314
12	0xbd780023	-0.060547005
13	0x3e33877d	0.17532153
14	0x3d698afa	0.057017304
15	0x3d41e907	0.047341373
16	0xbd649c86	-0.055813335
17	0x3caec284	0.021332987
18	0x3c46be44	0.012130324
19	0x3cbf3f64	0.023345657
20	0xbb97704a	-0.00462154
21	0xbd4c69ed	-0.049905706
22	0x3d82a53c	0.06379172
23	0xbc22625d	-0.009911147
24	0x3d7b828c	0.061403796
25	0xbdbd4a40	-0.09242678
26	0x3d10fbed	0.035396505
27	0x3d300eae	0.04298275
28	0x3db79539	0.08964009
29	0x3da8529b	0.08218881
30	0x3d58cd05	0.052929897
31	0x3dad3296	0.08456914
32	0xbd208573	-0.039189767
33	0xbe1d1b3d	-0.15342422
34	0xbd11917e	-0.035539143
35	0x3ddce003	0.10784914
36	0x3cb311d5	0.021859089
37	0xbe12e715	-0.14345963
38	0xbd773f69	-0.060363207
39	0x3caa60f4	0.020798184
40	0x3d0fe2ac	0.03512828
41	0x3e02d743	0.12777428
42	0x3d208b8d	0.039195586
43	0x3cc2d50c	0.02378323
44	0xbcdbcf85	-0.026832351
45	0x3d2a67ee	0.04160302
46	0xbc1e5e36	-0.009666016
47	0x3d14146e	0.036152296
48	0xbd44c72c	-0.048041508
49	0x3d22c003	0.039733898
50	0x3c9c9398	0.019113347
51	0x3e013d03	0.1262093
52	0x3ce2317c	0.027611487
53	0x3d0ba1fe	0.034090035
54	0xbca7078c	-0.02038934
55	0x3cf1d58b	0.02952077
56	0xbddd2877	-0.10798734
57	0x3cf86708	0.030322567
58	0x3d6cb41f	0.057788964
59	0xbda57e65	-0.080807485
60	0xbdf9713e	-0.12179802
61	0xbdeea014	-0.11651626
62	0xbc5f42d1	-0.01362677
63	0x3e2473d5	0.16059811
64	0xbd4aa44a	-0.049473085
65	0xbce20f16	-0.027595084
66	0xbcb70396	-0.022340577
67	0x3bf3c1cc	0.007438874
68	0x3c4db07d	0.012554285
69	0x3dcf9c2a	0.10137208
70	0xbd137126	-0.03599658
71	0xbd89fbf7	-0.067375116
72	0xbbaa895c	-0.005204363
73	0x3d30b4a7	0.043141034
74	0xbe13f8e2	-0.1445041
75	0xbd641755	-0.055686314
76	0x3d88fe44	0.06689122
77	0xbd6a07de	-0.05713641
78	0x3d80ce15	0.06289307
79	0xbd006831	-0.031349365
80	0x3bd24dc5	0.0064179623
81	0x3cfc15c0	0.03077209
82	0xbbde00fc	-0.0067750197
83	0xbd3da4d0	-0.046299756
84	0x3cbfbe4d	0.023406172
85	0x3b8f5399	0.0043739793
86	0x3d4a3a18	0.04937181
87	0x3d159326	0.036517285
88	0x3d20de39	0.039274428
89	0xbdadd12b	-0.08487161
90	0x3dc1281f	0.094314806
91	0xbb51ac28	-0.0031993482
92	0xbc9b272b	-0.018939575
93	0x3c04d23f	0.008106767
94	0x3bc2cf58	0.0059451275
95	0x3cf5217f	0.029923199
96	0xbcd09b49	-0.02546467
97	0xbd10091d	-0.03516494
98	0x3d80e22d	0.062931396
99	0x3d45f6f1	0.048331205
100	0x3a05fb58	0.00051110005
101	0xbd41977a	-0.0472636
102	0xbaa87442	-0.001285203
103	0xbd27bad6	-0.040949665
104	0xbb837eab	-0.0040129027
105	0xbce2d7b7	-0.027690751
106	0x3d3cd073	0.04609723
107	0xbdc2f819	-0.09519977
108	0xbad47cc1	-0.0016211496
109	0xbd6b44aa	-0.05743853
110	0x3d56daaf	0.052454647
111	0x3d8c2842	0.06843616
112	0xb9bacdb9	-0.0003562996
113	0x3c6a4da7	0.01430074
114	0xbd4a58f9	-0.049401257
115	0xbdeba12f	-0.11505353
116	0xbd9f506c	-0.07779011
117	0x38e18c08	0.00010754919
118	0xbdaf1087	-0.08548074
119	0x3bc9c07f	0.0061569805
120	0x3d232ee3	0.039839637
121	0x3e1bc77a	0.15212813
122	0xbde2b056	-0.1106879
123	0xbcd72916	-0.026264708
124	0xbdfad82c	-0.12248263
125	0xbc968194	-0.018372335
126	0x3c872847	0.016498698
127	0xbd861be0	-0.065482855
128	0xbd457198	-0.048204035
129	0x3de49293	0.11160769
130	0xbd97d81d	-0.07414267
131	0x3ddb752e	0.107157096
132	0xbcee4b45	-0.029088626
133	0x3c46691e	0.012110023
134	0xbd3eac0a	-0.046550788
135	0xbda91297	-0.08255499
136	0xbd00de42	-0.03146196
137	0x3c792bda	0.015208209
138	0x3d1dc1b9	0.038514826
139	0xbd50b85b	-0.050957065
140	0xbd52fd04	-0.051510826
141	0x3b62ef3c	0.0034627458
142	0x3d8855be	0.06656979
143	0x3d7171a3	0.058946263
144	0xbd3bf8fe	-0.045891754
145	0x3c7cd640	0.015431941
146	0x3d45524d	0.04817419
147	0x3c05ee21	0.00817445
148	0x3c48e68a	0.012261996
149	0x3d90b45c	0.07065651
150	0xbd9d585c	-0.07682869
151	0xbd34eec5	-0.04417302
152	0x3bae387d	0.0053167925
153	0x3da2c975	0.07948581
154	0x3d20e5ca	0.039281644
155	0xbe03c091	-0.12866427
156	0xbd3f9d07	-0.046780612
157	0xbdd9207d	-0.106019
158	0xbd9bedd5	-0.07613722
159	0xbcb382df	-0.02191299
160	0xbd3c00a3	-0.045899045
161	0x3deb63f5	0.11493675
162	0xbbf2a0d7	-0.0074044275
163	0x3c816f43	0.015800124
164	0xbd67f689	-0.0566316
165	0xbce4f61d	-0.027949387
166	0xbd011134	-0.031510547
167	0x3d6202da	0.0551785
168	0x3cf1099c	0.029423527
169	0x3d679a57	0.056543674
170	0x3de02d55	0.109461464
171	0xbc05ed7f	-0.008174299
172	0x3c54da5f	0.012991517
173	0x3d1be971	0.038064424
174	0x3d8ac7f1	0.06776417
175	0xbcae19cd	-0.021252537
176	0x3bc10cc2	0.0058914134
177	0xbd74e92e	-0.05979269
178	0x3e12dfd5	0.14343198
179	0xbd346f7b	-0.04405163
180	0x3cabcbe0	0.020971239
181	0x3d0b85c9	0.034063134
182	0xbd7ed7a1	-0.06221736
183	0x3d955c91	0.07293046
184	0x3cd62ba4	0.026143856
185	0x3c7863fd	0.015160558
186	0x3d595088	0.053055316
187	0x3cad3848	0.021145001
188	0xbcf97e7d	-0.030455822
189	0x3df36578	0.11884588
190	0xbbc36baf	-0.0059637646
191	0xbdac3177	-0.08407872
192	0x3ca6f1f3	0.020379042
193	0xbdfddddd	-0.12395833
194	0xbe2568ea	-0.16153303
195	0x3dbcb3cc	0.09213981
196	0x3cbd4636	0.023104768
197	0xbd005a29	-0.031335983
198	0xbce57ef6	-0.028014641
199	0x3e250619	0.16115607
200	0x3ccc0907	0.024906648
201	0x3cb279cf	0.021786598
202	0xbd1f4e0c	-0.03889279
203	0xbdbb73c8	-0.09152943
204	0xbe0bf7db	-0.13668768
205	0x3d3cb902	0.046074875
206	0xbd345aaa	-0.044031776
207	0xbe03778b	-0.12838571
208	0xbde7459b	-0.11292573
209	0xbd64b0cb	-0.055832665
210	0x3bca115e	0.006166621
211	0x3d944444	0.07239583
212	0xbc965fe1	-0.018356266
213	0x3c9f43bc	0.019441478
214	0x3cd0b831	0.025478454
215	0x3bbe3f23	0.0058058663
216	0xbd86389f	-0.06553768
217	0x3bd4a4ac	0.006489357
218	0xbc3798d4	-0.011205871
219	0xbc7b222d	-0.015327972
220	0x3d021f31	0.031768028
221	0xbdd4a12c	-0.103823036
222	0xbc4fdf2d	-0.012687487
223	0xbd075add	-0.03304564
224	0xbde10b2f	-0.10988461
225	0xbcede09c	-0.029037766
226	0xbc310c56	-0.010806164
227	0x3d16f3cf	0.036853608
228	0x3cd0a02e	0.025467005
229	0xbd0ab002	-0.03385926
230	0xbd6a8bd5	-0.05726226
231	0xbcd28143	-0.025696402
232	0xbd0728c3	-0.032997858
233	0x3d08e536	0.033421718
234	0xbe0c6de8	-0.13713801
235	0xbbe59521	-0.007006303
236	0x3de0ad53	0.10970559
237	0x3d5a84eb	0.053349417
238	0xbdb95959	-0.09050245
239	0x3d4be27c	0.04977654
240	0xbdcbd1cc	-0.09952125
241	0x3b3db9d3	0.0028949871
242	0x3d1618f2	0.036644883
243	0x3d8fe725	0.07026509
244	0xbd288e29	-0.0411512
245	0xbd162791	-0.036658827
246	0x3ce91a99	0.028455066
247	0xbd94145f	-0.07230448
248	0xbd89c9a7	-0.06727915
249	0xbc945e31	-0.01811132
250	0xbd898708	-0.06715208
251	0x3d7c619c	0.061616525
252	0x3c7c6d2c	0.015406888
253	0x3e288ecd	0.16460724
254	0xbc2d8164	-0.010589931
255	0xbb060795	-0.0020451297

output.bias f4 [2]
0	0x3d0be91f	0.03415787
1	0x3d2fa375	0.042880494
